name: "Unsupervised_TNet"
layer {
  name: "data"
  type: "SPUnsupervisedPos"
  top: "data"
  top: "label"
  include {
    phase: TRAIN
  }
  sp_unsupervised_pos_param {
    batch_size: 40
    channels: 3
    height : 240
   width : 240
   data_path : "E:/ImageData/Generation/RGB"
   pos_path : "./snapshot_pos/dataPosition.bin"

   #data_limit : 100
  }
}
layer {
  name: "data"
  type: "SPUnsupervisedPos"
  top: "data"
  top: "label"
  include {
    phase: TEST
  }
  sp_unsupervised_pos_param {
    batch_size: 1
    channels: 3
    height : 240
    width : 240
    data_path : "E:/ImageData/Generation/RGB"
    pos_path : "./snapshot_pos/dataPosition.bin"
    data_limit : 100
  }
}
layer {
  name: "conv1/7x7_s2"
  type: "Convolution"
  bottom: "data"
  top: "conv1/7x7_s2"
  param {
    lr_mult: 1
    decay_mult: 1
  }
  param {
    lr_mult: 2
    decay_mult: 0
  }
  convolution_param {
    num_output: 64
    kernel_size: 7
    stride: 2
    visualize: 1
    weight_filler {
      type: "xavier"
    }
    bias_filler {
      type: "constant"
      value: 0.2
    }
  }
}
layer {
  name: "bn1"
  type: "BatchNorm"
  bottom: "conv1/7x7_s2"
  top: "bn1"
  param {
    lr_mult: 0
  }
  param {
    lr_mult: 0
  }
  param {
    lr_mult: 0
  }
}
layer {
  name: "conv1/relu_7x7"
  type: "ReLU"
  bottom: "bn1"
  top: "bn1"
}
layer {
  name: "conv2"
  type: "Convolution"
  bottom: "bn1"
  top: "conv2"
  param {
    lr_mult: 1
    decay_mult: 1
  }
  param {
    lr_mult: 2
    decay_mult: 0
  }
  convolution_param {
    num_output: 32
    kernel_size: 5
    visualize: 2
    weight_filler {
      type: "xavier"
    }
    bias_filler {
      type: "constant"
      value: 0.1
    }
  }
}
layer {
  name: "bn2"
  type: "BatchNorm"
  bottom: "conv2"
  top: "bn2"
  param {
    lr_mult: 0
  }
  param {
    lr_mult: 0
  }
  param {
    lr_mult: 0
  }
}
layer {
  name: "relu2"
  type: "ReLU"
  bottom: "bn2"
  top: "bn2"
}
layer {
  name: "conv3"
  type: "Convolution"
  bottom: "bn2"
  top: "conv3"
  param {
    lr_mult: 1
    decay_mult: 1
  }
  param {
    lr_mult: 2
    decay_mult: 0
  }
  convolution_param {
    num_output: 32
    kernel_size: 5
    visualize: 3
    weight_filler {
      type: "xavier"
    }
    bias_filler {
      type: "constant"
      value: 0
    }
  }
}
layer {
  name: "bn3"
  type: "BatchNorm"
  bottom: "conv3"
  top: "bn3"
  param {
    lr_mult: 0
  }
  param {
    lr_mult: 0
  }
  param {
    lr_mult: 0
  }
}
layer {
  name: "relu3"
  type: "ReLU"
  bottom: "bn3"
  top: "bn3"
}
layer {
  name: "spatial"
  type: "Spatial"
  bottom: "bn3"
  top: "spatial1"
}
#layer {
#  name: "LinearSpatial"
#  type: "LinearSpatial"
#  bottom: "bn3"
#  top: "spatial1"
#  linear_spatial_param{
#	threshold: 0.9
#  }
#}
layer {
  name: "loss"
  type: "EuclideanLoss"
  bottom: "spatial1"
  bottom: "label"
  top: "l2_error"
}