name: "uvd_xyz_net"
layer {
  name: "data"
  type: "UVDXYZData"
  top: "data"
  top: "label"
  include {
    phase: TRAIN
  }
  sp_unsupervised_data_param {
    batch_size: 201
    data_path : "./UVD_XYZ_net/uvd_XYZ_robot/uvd_XYZ_robot_train.bin"
  }
}
layer {
  name: "data"
  type: "UVDXYZData"
  top: "data"
  top: "label"
  include {
    phase: TEST
  }
  sp_unsupervised_data_param {
   batch_size: 22
   data_path : "./UVD_XYZ_net/uvd_XYZ_robot/uvd_XYZ_robot_test.bin"
  }
}
#layer {
#  name: "LT1"
#  type: "LT"
#  bottom: "data"
#  top: "LT1"
#}
layer {
  name: "xyz_xyz_robot"
  type: "InnerProduct"
  bottom: "data"
  top: "xyz_robot"
  param {
    lr_mult: 1
    decay_mult: 0
  }
  param {
    lr_mult: 1
    decay_mult: 0
  }
  inner_product_param {
    num_output: 3
    weight_filler {
      type: "gaussian"
      std: 0.005
    }
    bias_filler {
      type: "constant"
      value: 0.1
    }
  }
}
layer {
  name: "distance"
  type: "EuclideanDist"
  bottom: "xyz_robot"
  bottom: "label"
  bottom: "data"
  top: "accuracy"
  include {
    phase: TEST
  }
}
layer {
  name: "loss"
  type: "EuclideanLoss"
  bottom: "xyz_robot"
  bottom: "label"
  top: "l2_error"
}